data/variables/emb_predict_SimpleReg.pt (torch, 173868 bytes, 2 tensors)

proj.0.weight f4 [42, 1024]
000000 bf cf c8 3b 3c be 87 3c 79 91 16 3b 6f 09 ab bb
       0.006128281 0.016570203 0.0022974892 -0.0052196304
000010 f4 1a ed bb 55 60 44 3c 24 ab 65 bb 14 a9 39 3b
       -0.007235879 0.011985858 -0.0035044635 0.0028329538
000020 9d 9b cb ba 09 c3 14 3c a1 d3 1a 3a 80 d6 06 bc
       -0.0015534047 0.009079703 0.0005906169 -0.008229852
000030 55 84 99 3b dd 2c d8 bc 14 17 2c 3c 4a 25 d7 bb
       0.0046849647 -0.02638858 0.010503549 -0.0065657245
000040 c0 de 40 3c ea 26 4e b9 e1 b9 56 3c b2 8d e9 ba
       0.011771858 -0.00019660188 0.01310584 -0.0017818718
000050 0d ec 1d bc c2 71 6a 3c cd 59 82 3c 45 3a 38 bc
       -0.009638798 0.014309349 0.015911961 -0.011244361
000060 fe 1d c5 bb 33 d4 85 bc d1 2c 90 ba f4 14 90 3b
       -0.0060155382 -0.016336536 -0.0010999684 0.004397029
000070 31 bd 6e 3b ae 78 19 3b bb a8 26 3c d6 2b 12 bc
       0.0036428685 0.0023417878 0.010172064 -0.008921584
000080 cf e2 56 bc 0a 70 7d bc 5d 71 79 39 c4 e4 aa bb
       -0.013115599 -0.015468607 0.00023788722 -0.0052152593
000090 87 75 73 bc 7e 99 be 3b 1f 45 9b 3b bc 6a cd ba
       -0.014859564 0.0058166375 0.0047384645 -0.0015672068
0000a0 84 98 a6 ba 43 54 0a 3c 17 11 92 b9 98 f4 52 3c
       -0.0012710248 0.008442941 -0.00027860023 0.0128756985
0000b0 d9 17 26 bc be bb 8e bb df 3d 06 3c 10 0e 8b 3c
       -0.010137522 -0.0043558767 0.008193462 0.016974479
0000c0 0c ea aa ba d1 d0 ec bb a4 b3 4b 3a 45 f3 e6 3b
       -0.0013039722 -0.0072270413 0.0007770604 0.007048043
0000d0 07 07 01 3c 45 9e 99 3b 70 57 56 3b 1a 40 b4 3b
       0.007875211 0.0046880567 0.0032705925 0.0055008056
0000e0 04 22 05 3b f4 ff de bb fa ae 7e 3b cf 4f a7 3a
       0.0020314464 -0.0068054143 0.0038861618 0.0012764874
0000f0 be 71 86 3c 4d 86 24 bc b9 10 fc bb f8 2b 8f bb
       0.016411658 -0.010041785 -0.007692423 -0.004369255
000100 c4 d6 67 3c 44 4e 5d 3c 14 7a 24 3c ff 0f 3a bc
       0.014150325 0.0135074295 0.010038871 -0.011356353
000110 2c ca 5d 3c 7b 4a 03 3c 5d 02 f4 b9 bc 4b 55 ba
       0.013536971 0.008013363 -0.00046541067 -0.00081365905
000120 53 4b 10 bc 9a 73 8e bc 8c 64 20 3c ac 8c 6c 3c
       -0.008807021 -0.017389107 0.009789597 0.014437836
000130 47 6d e2 bb af 8f ad 3a 54 0c 01 3b e2 ec bd 3a
       -0.0069099995 0.0013241674 0.0019691186 0.0014490152
000140 18 d6 42 bc ea b9 69 3c 76 03 07 3b ac 99 45 bc
       -0.011891864 0.014265517 0.0020601428 -0.012060564
000150 55 66 b4 b9 24 75 c5 3b 5c a1 5a bc 42 3e 81 3b
       -0.0003440852 0.006025927 -0.013344135 0.0039441893
000160 98 56 43 3b dd fc 0f bc f1 1e aa bc b6 af 86 bb
       0.0029806253 -0.008788315 -0.020766707 -0.004110302
000170 b0 fd fb 3a 94 30 be bb 88 5d 70 3c ba 4e 4a 3c
       0.0019225385 -0.005804131 0.014670737 0.012347871
000180 a9 cb 31 3c 36 68 2f bc 6b c3 a7 3a 8f 96 8a bc
       0.010851779 -0.010705998 0.0012799328 -0.016917495
000190 8a 00 6f bc 78 54 4f b8 46 1c 1d 3b e7 cc 00 3d
       -0.014587531 -4.9431314e-05 0.002397315 0.03144541
0001a0 a7 b4 7f bb 64 51 65 bb 7e e5 80 bb f3 40 8e 3c
       -0.003901759 -0.003499114 -0.0039336076 0.017364955
0001b0 c0 a1 48 3a 8e fa 65 ba 9b 4a 87 3b 3c 26 9b bc
       0.0007653497 -0.00087729923 0.0041287667 -0.01893913
0001c0 ea c7 8d 3a ba d1 cc b9 5e 0c 81 bb 0f ab 80 3b
       0.0010817025 -0.0003906617 -0.003938242 0.003926642
0001d0 d5 d3 74 bc 0d 6a a2 3b 98 a5 96 bb c7 9b 75 3b
       -0.014943083 0.00495649 -0.004597377 0.0037476884
0001e0 a8 3d d3 3b 38 61 9e 3a 4f 3d 18 bc 12 65 13 3c
       0.006446559 0.0012083417 -0.009291961 0.008996265
0001f0 5c 66 86 3c ed f6 77 bc ca 90 af ba 50 12 2e bc
       0.01640623 -0.015134555 -0.0013394591 -0.010624483
000200 3f a4 35 3b 03 9d 13 3c f2 0d 49 bc 04 7b e8 3b
       0.0027716307 0.0090096025 -0.012271391 0.0070947427
000210 44 80 54 3c 4b 20 16 3b 24 24 6a 3c 2c 2a 80 3c
       0.012970034 0.0022907432 0.014290843 0.01564511
000220 7c 12 82 3b 6e 69 a5 3a 22 bb df bb 3b fc 57 3b
       0.0039694887 0.0012619921 -0.006827728 0.0032956738
000230 d7 1f 8f 3c 84 df e0 3b 5d 32 7d 3c e8 c3 b9 3b
       0.017471237 0.0068625826 0.015453902 0.005669106
000240 bb 1c 6d 3c fb 3f 0c bc 89 56 e8 ba 2a fb aa ba
       0.014472182 -0.008560176 -0.0017725985 -0.0013044823
000250 eb e6 c6 bb f7 1e 1d 3c 5f b9 bf 3b 1d 13 05 3a
       -0.006070008 0.009589902 0.0058509554 0.00050763955
000260 18 f0 da bb a1 20 86 3c 02 53 91 bc 14 14 f7 3b
       -0.0066814534 0.01637298 -0.017739777 0.0075402353
000270 b0 cc bd bb cd 74 2e bc 3e 9c 06 bc c1 9e 59 3c
       -0.005792223 -0.010647965 -0.008215962 0.013282479
000280 8f c7 39 3c 9b 1c 7d bb fe ad 5e bb 50 a6 2c bc
       0.011339082 -0.0038621787 -0.003397822 -0.010537699
000290 85 4f 10 3c 01 2d 48 3c 44 b6 3a 3c 0d 20 c6 bb
       0.008808021 0.012217761 0.011395995 -0.006046301
0002a0 00 d3 4e 3b 86 d7 e6 3b dc 9a 84 3b 31 aa 10 bb
       0.0031558871 0.0070447354 0.004046781 -0.0022074098
0002b0 ca 36 51 bb c3 4d 43 3b 55 cb ad ba ed 0e 9f 3b
       -0.0031923526 0.0029800988 -0.001325945 0.004854074
0002c0 5b fd 48 3c b2 59 d4 ba eb b0 a3 bb 70 91 fc 3b
       0.012267436 -0.0016201048 -0.0049954555 0.007707767
0002d0 e3 b7 41 bc 1d f1 21 bb 55 08 87 bc 73 f9 d7 3b
       -0.011823627 -0.0024710365 -0.016483465 0.006591016
0002e0 c4 e4 57 3b 9e 22 bc ba 90 f1 6c 3b f2 83 f8 bb
       0.0032942751 -0.0014353578 0.0036154725 -0.0075840885
0002f0 21 25 f7 bb d6 5a e9 39 dc 3e 65 3b a3 87 d7 3b
       -0.007542268 0.000445089 0.0034980094 0.0065774485
000300 f5 1b 60 3c 5f ef 56 3b 81 d1 63 bb f7 4b 94 3c
       0.0136785405 0.0032796485 -0.0034762325 0.01810263
000310 c7 2e f5 bb 4e 69 16 3a 72 12 3f 3b 2e a3 00 bc
       -0.007482383 0.00057377375 0.0029155281 -0.007851405
000320 14 ec 8d 3b c8 82 be 3a 43 53 13 bc bc bc 0c bc
       0.004331121 0.0014534825 -0.008992019 -0.00858992
000330 10 d9 a2 bb d8 05 9b 3b fc fa fc 3b bd 23 d5 3a
       -0.0049697235 0.0047309212 0.0077203494 0.0016261261
000340 3f 8a cb 3b e3 7c 92 3c 29 bf 8d bb e7 7c c1 3a
       0.0062115486 0.017881816 -0.0043257666 0.0014761955
000350 6f 0b f8 3a 52 55 d5 bc 23 5a 84 bc 4d 6f 4a 3b
       0.0018924306 -0.02604166 -0.016156262 0.0030889094
000360 2d c4 e0 bb 05 92 99 39 81 1b fd 3a f4 fd dc bb
       -0.0068593235 0.00029291227 0.0019310565 -0.0067441408
000370 dd 00 36 bc 46 fa 99 bc f2 a8 e1 3b 56 a3 1e ba
       -0.011108604 -0.018796097 0.006886595 -0.00060515606
000380 3c 06 a5 bb af b0 2b 3c 0b 8b 76 bc 56 54 53 3c
       -0.0050361436 0.010479136 -0.015047799 0.012898525
000390 9b 7f 8c bc f4 26 37 bb cb 2e 5e bb 50 39 d1 3b
       -0.01715069 -0.0027946802 -0.0033902403 0.006385006
0003a0 c5 71 08 3c 59 bc 4d 3c 75 ae 96 bc cc a3 b3 3c
       0.008327906 0.012557113 -0.018393734 0.02192869
0003b0 17 53 bd bb 25 06 06 3c e8 5c b3 3b 07 f5 15 bc
       -0.0057777273 0.008180176 0.005473722 -0.009152657
0003c0 8c 3b a1 39 ba 58 c9 39 87 fb 2f 3c 59 18 54 3c
       0.0003075268 0.00038403814 0.010741121 0.012945258
0003d0 ca 1c e7 bb 17 1a 98 3c c3 42 84 bb 4a 35 c4 bb
       -0.0070529925 0.018567128 -0.004036279 -0.005987798
0003e0 60 8a 58 bc 18 d3 89 bc 26 25 b2 bb 14 c4 f2 bb
       -0.013216585 -0.01682429 -0.0054365573 -0.0074086282
0003f0 c7 de 4c bc b3 95 34 bc 08 2e 14 3c 3e 5b c8 3b
       -0.012504286 -0.011022019 0.009044178 0.0061143925

proj.0.bias f4 [42]
000000 3b d0 17 3f f1 f3 05 be 69 ec c0 bd dd 6f 10 3e
       0.5930211 -0.13081338 -0.09420092 0.14105172
000010 d6 65 5e 3e 25 d0 61 3e 01 7d 43 3e f5 d6 cb ba
       0.21718535 0.22052057 0.19090654 -0.0015551733
000020 7d 38 42 bb 46 76 17 bd 03 8a 4b 3e e8 ab c0 3e
       -0.002963572 -0.03697803 0.19876866 0.37631154
000030 36 d2 fd 3d 4f c8 be 3d 66 d7 6c 3b 23 5f 0a be
       0.1239361 0.093155496 0.003613913 -0.13512854
000040 48 bc fd 3d b7 31 6f 3e 4d 33 cd bd dd e9 68 be
       0.123894274 0.23358808 -0.100195505 -0.22745462
000050 95 07 7f 3c d6 c3 2a be 02 ac 60 be e6 5e 94 bd
       0.015565773 -0.16676268 -0.21940616 -0.07244663
000060 a5 55 c5 bd 1f ba 88 bd 3a 5a 22 be d3 4c 68 bd
       -0.09635476 -0.06676125 -0.15854731 -0.05671389
000070 73 f7 81 bd c9 6e 67 be e1 92 2d bd c1 43 93 bd
       -0.06346025 -0.22600855 -0.042376403 -0.071906574
000080 d5 51 29 be f6 99 26 be 3d 14 d0 bd 36 9b 3d bd
       -0.16535123 -0.16269669 -0.1016011 -0.0462906
000090 9d c1 1d be 3f 4a 5c be 8e 4c d0 bd 00 42 94 bd
       -0.15405889 -0.21512698 -0.10170852 -0.07239151
0000a0 b5 45 10 be 9b 33 84 3c
       -0.14089091 0.016137889
